Model summary:
Model: "sequential"
_________________________________________________________________
Layer (type)                 Output Shape              Param #   
=================================================================
conv2d (Conv2D)              (None, 128, 128, 32)      896       
_________________________________________________________________
batch_normalization (BatchNo (None, 128, 128, 32)      128       
_________________________________________________________________
max_pooling2d (MaxPooling2D) (None, 64, 64, 32)        0         
_________________________________________________________________
dropout (Dropout)            (None, 64, 64, 32)        0         
_________________________________________________________________
conv2d_1 (Conv2D)            (None, 64, 64, 64)        18496     
_________________________________________________________________
batch_normalization_1 (Batch (None, 64, 64, 64)        256       
_________________________________________________________________
max_pooling2d_1 (MaxPooling2 (None, 32, 32, 64)        0         
_________________________________________________________________
dropout_1 (Dropout)          (None, 32, 32, 64)        0         
_________________________________________________________________
conv2d_2 (Conv2D)            (None, 32, 32, 128)       73856     
_________________________________________________________________
batch_normalization_2 (Batch (None, 32, 32, 128)       512       
_________________________________________________________________
max_pooling2d_2 (MaxPooling2 (None, 16, 16, 128)       0         
_________________________________________________________________
dropout_2 (Dropout)          (None, 16, 16, 128)       0         
_________________________________________________________________
flatten (Flatten)            (None, 32768)             0         
_________________________________________________________________
dense (Dense)                (None, 256)               8388864   
_________________________________________________________________
batch_normalization_3 (Batch (None, 256)               1024      
_________________________________________________________________
dropout_3 (Dropout)          (None, 256)               0         
_________________________________________________________________
flatten_1 (Flatten)          (None, 256)               0         
_________________________________________________________________
dense_1 (Dense)              (None, 512)               131584    
_________________________________________________________________
batch_normalization_4 (Batch (None, 512)               2048      
_________________________________________________________________
dropout_4 (Dropout)          (None, 512)               0         
_________________________________________________________________
dense_2 (Dense)              (None, 1)                 513       
=================================================================
Total params: 8,618,177
Trainable params: 8,616,193
Non-trainable params: 1,984
_________________________________________________________________

Parameters of each layer:
Layer Name: conv2d
Layer Trainable: True
Layer Parameters: 896
Layer Weights:
Weight 1:
[[[[… Weight 2:
[ … ==================================================
…
